…
9  768        ['conv2d_1[0][0]']               \n"," rmalization)                   2)                                                                \n","                                                                                                  \n"," leaky_re_lu_1 (LeakyReLU)      (None, 112, 112, 19  0           ['batch_normalization_1[0][0]']  \n","                                2)                                                                \n","                                                                                                  \n"," max_pooling2d_1 (MaxPooling2D)  (None, 56, 56, 192)  0          ['leaky_re_lu_1[0][0]']          \n","                                                                                                  \n"," conv2d_2 (Conv2D)              (None, 56, 56, 128)  24704       ['max_pooling2d_1[0][0]']        \n","                                                                                                  \n"," batch_normalization_2 (BatchNo  (None, 56, 56, 128)  512        ['conv2d_2[0][0]']               \n"," rmalization)                                                                                     \n","                                                                                                  \n"," leaky_re_lu_2 (LeakyReLU)      (None, 56, 56, 128)  0           ['batch_normalization_2[0][0]']  \n","                                                                                                  \n"," conv2d_3 (Conv2D)              (None, 56, 56, 256)  295168      ['leaky_re_lu_2[0][0]']          \n","                                                                                                  \n"," batch_normalization_3 (BatchNo  (None, 56, 56, 256)  1024       ['conv2d_3[0][0]']               \n"," rmalization)                                                                                     \n","                                                                                                  \n"," leaky_re_lu_3 (LeakyReLU)      (None, 56, 56, 256)  0           ['batch_normalization_3[0][0]']  \n","                                                                                                  \n"," conv2d_4 (Conv2D)              (None, 56, 56, 256)  65792       ['leaky_re_lu_3[0][0]']          \n","                                                                                                  \n"," batch_normalization_4 (BatchNo  (None, 56, 56, 256)  1024       ['conv2d_4[0][0]']               \n"," rmalization)                                                                                     \n","                                                                                                  \n"," leaky_re_lu_4 (LeakyReLU)      (None, 56, 56, 256)  0           ['batch_normalization_4[0][0]']  \n","                                                                                                  \n"," conv2d_5 (Conv2D)              (None, 56, 56, 512)  1180160     ['leaky_re_lu_4[0][0]']          \n","                                                                                                  \n"," batch_normalization_5 (BatchNo  (None, 56, 56, 512)  2048       ['conv2d_5[0][0]']               \n"," rmalization)                                                                                     \n","                                                                                                  \n"," leaky_re_lu_5 (LeakyReLU)      (None, 56, 56, 512)  0           ['batch_normalization_5[0][0]']  \n","                                                                                                  \n"," max_pooling2d_2 (MaxPooling2D)  (None, 28, 28, 512)  0          ['leaky_re_lu_5[0][0]']          \n","                                                                                                  \n"," conv2d_6 (Conv2D)              (None, 28, 28, 256)  131328      ['max_pooling2d_2[0][0]']        \n","                                                                                                  \n"," batch_normalization_6 (BatchNo  (None, 28, 28, 256)  1024       ['conv2d_6[0][0]']               \n"," rmalization)                                                                                     \n","                                                                                                  \n"," leaky_re_lu_6 (LeakyReLU)      (None, 28, 28, 256)  0           ['batch_normalization_6[0][0]']  \n","                                                                                                  \n"," conv2d_7 (Conv2D)              (None, 28, 28, 512)  1180160     ['leaky_re_lu_6[0][0]']          \n","                                                                                                  \n"," batch_normalization_7 (BatchNo  (None, 28, 28, 512)  2048       ['conv2d_7[0][0]']               \n"," rmalization)                                                                                     \n","                                                                                                  \n"," leaky_re_lu_7 (LeakyReLU)      (None, 28, 28, 512)  0           ['batch_normalization_7[0][0]']  \n","                                                                                                  \n"," conv2d_8 (Conv2D)              (None, 28, 28, 256)  131328      ['leaky_re_lu_7[0][0]']          \n","                                                                                                  \n"," batch_normalization_8 (BatchNo  (None, 28, 28, 256)  1024       ['conv2d_8[0][0]']               \n"," rmalization)                                                                                     \n","                                                                                                  \n"," leaky_re_lu_8 (LeakyReLU)      (None, 28, 28, 256)  0           ['batch_normalization_8[0][0]']  \n","                                                                                                  \n"," conv2d_9 (Conv2D)              (None, 28, 28, 512)  1180160     ['leaky_re_lu_8[0][0]']          \n","                                                                                                  \n"," batch_normalization_9 (BatchNo  (None, 28, 28, 512)  2048       ['conv2d_9[0][0]']               \n"," rmalization)                                                                                     \n","                                                                                                  \n"," leaky_re_lu_9 (LeakyReLU)      (None, 28, 28, 512)  0           ['batch_normalization_9[0][0]']  \n","                                                                                                  \n"," conv2d_10 (Conv2D)             (None, 28, 28, 256)  131328      ['leaky_re_lu_9[0][0]']          \n","                                                                                                  \n"," batch_normalization_10 (BatchN  (None, 28, 28, 256)  1024       ['conv2d_10[0][0]']              \n"," ormalization)                                                                                    \n","                                                                                                  \n"," leaky_re_lu_10 (LeakyReLU)     (None, 28, 28, 256)  0           ['batch_normalization_10[0][0]'] \n","                                                                                                  \n"," conv2d_11 (Conv2D)             (None, 28, 28, 512)  1180160     ['leaky_re_lu_10[0][0]']         \n","                                                                                                  \n"," batch_normalization_11 (BatchN  (None, 28, 28, 512)  2048       ['conv2d_11[0][0]']              \n"," ormalization)                                                                                    \n","                                                                                                  \n"," leaky_re_lu_11 (LeakyReLU)     (None, 28, 28, 512)  0           ['batch_normalization_11[0][0]'] \n","                                                                                                  \n"," conv2d_12 (Conv2D)             (None, 28, 28, 256)  131328      ['leaky_re_lu_11[0][0]']         \n","                                                                                                  \n"," batch_normalization_12 (BatchN  (None, 28, 28, 256)  1024       ['conv2d_12[0][0]']              \n"," ormalization)                                                                                    \n","                                                                                                  \n"," leaky_re_lu_12 (LeakyReLU)     (None, 28, 28, 256)  0           ['batch_normalization_12[0][0]'] \n","                                                                                                  \n"," conv2d_13 (Conv2D)             (None, 28, 28, 512)  1180160     ['leaky_re_lu_12[0][0]']         \n","                                                                                                  \n"," batch_normalization_13 (BatchN  (None, 28, 28, 512)  2048       ['conv2d_13[0][0]']              \n"," ormalization)                                                                                    \n","                                                                                                  \n"," leaky_re_lu_13 (LeakyReLU)     (None, 28, 28, 512)  0           ['batch_normalization_13[0][0]'] \n","                                                                                                  \n"," conv2d_14 (Conv2D)             (None, 28, 28, 1024  4719616     ['leaky_re_lu_13[0][0]']         \n","                                )                                                                 \n","                                          
…
24  4096       ['conv2d_19[0][0]']              \n"," ormalization)                  )                                                                 \n","                                                                                                  \n"," leaky_re_lu_19 (LeakyReLU)     (None, 14, 14, 1024  0           ['batch_normalization_19[0][0]'] \n","                                )                                                                 \n","                                                                                                  \n"," conv2d_20 (Conv2D)             (None, 7, 7, 1024)   9438208     ['leaky_re_lu_19[0][0]']         \n","                                                                                                  \n"," batch_normalization_20 (BatchN  (None, 7, 7, 1024)  4096        ['conv2d_20[0][0]']              \n"," ormalization)                                                                                    \n","                                                                                                  \n"," leaky_re_lu_20 (LeakyReLU)     (None, 7, 7, 1024)   0           ['batch_normalization_20[0][0]'] \n","                                                                                                  \n"," conv2d_21 (Conv2D)             (None, 7, 7, 1024)   9438208     ['leaky_re_lu_20[0][0]']         \n","                                                                                                  \n"," batch_normalization_21 (BatchN  (None, 7, 7, 1024)  4096        ['conv2d_21[0][0]']              \n"," ormalization)                                                                                    \n","                                                                                                  \n"," leaky_re_lu_21 (LeakyReLU)     (None, 7, 7, 1024)   0           ['batch_normalization_21[0][0]'] \n","                                                                                                  \n"," conv2d_22 (Conv2D)             (None, 7, 7, 1024)   9438208     ['leaky_re_lu_21[0][0]']         \n","                                                                                                  \n"," batch_normalization_22 (BatchN  (None, 7, 7, 1024)  4096        ['conv2d_22[0][0]']              \n"," ormalization)                                                                                    \n","                                                                                                  \n"," leaky_re_lu_22 (LeakyReLU)     (None, 7, 7, 1024)   0           ['batch_normalization_22[0][0]'] \n","                                                                                                  \n"," conv2d_23 (Conv2D)             (None, 7, 7, 10)     10250       ['leaky_re_lu_22[0][0]']         \n","                                                                                                  \n"," conv2d_24 (Conv2D)             (None, 7, 7, 3)      3075        ['leaky_re_lu_22[0][0]']         \n","                                                                                                  \n"," concatenate (Concatenate)      (None, 7, 7, 13)     0           ['conv2d_23[0][0]',              \n","                                                                  'conv2d_24[0][0]']              \n","                                                                                                  \n","==================================================================================================\n","Total params: 59,957,325\n","Trainable par
…
2  512        ['conv2d_29[0][0]']              \n"," ormalization)                  8)                                                                \n","                                                                                                  \n"," leaky_re_lu_27 (LeakyReLU)     (None, 104, 104, 12  0           ['batch_normalization_27[0][0]'] \n","                                8)                                                                \n","                                                                                                  \n"," max_pooling2d_6 (MaxPooling2D)  (None, 52, 52, 128)  0          ['leaky_re_lu_27[0][0]']         \n","                                                                                                  \n"," conv2d_30 (Conv2D)             (None, 52, 52, 256)  295168      ['max_pooling2d_6[0][0]']        \n","                                                                                                  \n"," batch_normalization_28 (BatchN  (None, 52, 52, 256)  1024       ['conv2d_30[0][0]']              \n"," ormalization)                                                                                    \n","                                                                                                  \n"," leaky_re_lu_28 (LeakyReLU)     (None, 52, 52, 256)  0           ['batch_normalization_28[0][0]'] \n","                                                                                                  \n"," conv2d_31 (Conv2D)             (None, 52, 52, 128)  32896       ['leaky_re_lu_28[0][0]']         \n","                                                                                                  \n"," batch_normalization_29 (BatchN  (None, 52, 52, 128)  512        ['conv2d_31[0][0]']              \n"," ormalization)                                                                                    \n","                                                                                                  \n"," leaky_re_lu_29 (LeakyReLU)     (None, 52, 52, 128)  0           ['batch_normalization_29[0][0]'] \n","                                                                                                  \n"," conv2d_32 (Conv2D)             (None, 52, 52, 256)  295168      ['leaky_re_lu_29[0][0]']         \n","                                                                                                  \n"," batch_normalization_30 (BatchN  (None, 52, 52, 256)  1024       ['conv2d_32[0][0]']              \n"," ormalization)                                                                                    \n","                                                                                                  \n"," leaky_re_lu_30 (LeakyReLU)     (None, 52, 52, 256)  0           ['batch_normalization_30[0][0]'] \n","                                                                                                  \n"," max_pooling2d_7 (MaxPooling2D)  (None, 26, 26, 256)  0          ['leaky_re_lu_30[0][0]']         \n","                                                                                                  \n"," conv2d_33 (Conv2D)             (None, 26, 26, 512)  1180160     ['max_pooling2d_7[0][0]']        \n","                                                                                                  \n"," batch_normalization_31 (BatchN  (None, 26, 26, 512)  2048       ['conv2d_33[0][0]']              \n"," ormalization)                                                                                    \n","                                                                                                  \n"," leaky_re_lu_31 (LeakyReLU)     (None, 26, 26, 512)  0           ['batch_normalization_31[0][0]'] \n","                                                                                                  \n"," conv2d_34 (Conv2D)             (None, 26, 26, 256)  131328      ['leaky_re_lu_31[0][0]']         \n","                                                                                                  \n"," batch_normalization_32 (BatchN  (None, 26, 26, 256)  1024       ['conv2d_34[0][0]']              \n"," ormalization)                                                                                    \n","                                                                                                  \n"," leaky_re_lu_32 (LeakyReLU)     (None, 26, 26, 256)  0           ['batch_normalization_32[0][0]'] \n","                                                                                                  \n"," conv2d_35 (Conv2D)             (None, 26, 26, 512)  1180160     ['leaky_re_lu_32[0][0]']         \n","                                                                                                  \n"," batch_normalization_33 (BatchN  (None, 26, 26, 512)  2048       ['conv2d_35[0][0]']              \n"," ormalization)                                                                                    \n","                                                                                                  \n"," leaky_re_lu_33 (LeakyReLU)     (None, 26, 26, 512)  0           ['batch_normalization_33[0][0]'] \n","                                                                                                  \n"," conv2d_36 (Conv2D)             (None, 26, 26, 256)  131328      ['leaky_re_lu_33[0][0]']         \n","                                                                                                  \n"," batch_normalization_34 (BatchN  (None, 26, 26, 256)  1024       ['conv2d_36[0][0]']              \n"," ormalization)                                                                                    \n","                                                                                                  \n"," leaky_re_lu_34 (LeakyReLU)     (None, 26, 26, 256)  0           ['batch_normalization_34[0][0]'] \n","                                                                                                  \n"," conv2d_37 (Conv2D)             (None, 26, 26, 512)  1180160     ['leaky_re_lu_34[0][0]']         \n","                                                                                                  \n"," batch_normalization_35 (BatchN  (None, 26, 26, 512)  2048       ['conv2d_37[0][0]']              \n"," ormalization)                                                                                    \n","                                                                                                  \n"," leaky_re_lu_35 (LeakyReLU)     (None, 26, 26, 512)  0           ['batch_normalization_35[0][0]'] \n","                                                                                                  \n"," max_pooling2d_8 (MaxPooling2D)  (None, 13, 13, 512)  0          ['leaky_re_lu_35[0][0]']         \n","                                                                                                  \n"," conv2d_38 (Conv2D)             (None, 13, 13, 1024  4719616     ['max_pooling2d_8[0][0]']        \n","                                )                                                                 \n","                                           
…
24  4096       ['conv2d_46[0][0]']              \n"," ormalization)                  )                                                                 \n","                                                                                                  \n"," leaky_re_lu_44 (LeakyReLU)     (None, 13, 13, 1024  0           ['batch_normalization_44[0][0]'] \n","                                )                                                                 \n","                                                                                                  \n"," conv2d_48 (Conv2D)             (None, 13, 13, 2)    2050        ['leaky_re_lu_44[0][0]']         \n","                                                                                                  \n"," conv2d_52 (Conv2D)             (None, 13, 13, 2)    2050        ['leaky_re_lu_44[0][0]']         \n","                                                                                                  \n"," conv2d_56 (Conv2D)             (None, 13, 13, 2)    2050        ['leaky_re_lu_44[0][0]']         \n","                                                                                                  \n"," conv2d_60 (Conv2D)             (None, 13, 13, 2)    2050        ['leaky_re_lu_44[0][0]']         \n","                                                                                                  \n"," conv2d_64 (Conv2D)             (None, 13, 13, 2)    2050        ['leaky_re_lu_44[0][0]']         \n","                                                                                                  \n"," conv2d_47 (Conv2D)             (None, 13, 13, 2)    2050        ['leaky_re_lu_44[0][0]']         \n","                                                                                                  \n"," tf.math.multiply (TFOpLambda)  (None, 13, 13, 2)    0           ['conv2d_48[0][0]']              \n","                                                                                                  \n"," conv2d_49 (Conv2D)             (None, 13, 13, 1)    1025        ['leaky_re_lu_44[0][0]']         \n","                                                                                                  \n"," conv2d_50 (Conv2D)             (None, 13, 13, 3)    3075        ['leaky_re_lu_44[0][0]']         \n","                                                                                                  \n"," conv2d_51 (Conv2D)             (None, 13, 13, 2)    2050        ['leaky_re_lu_44[0][0]']         \n","                                                                                                  \n"," tf.math.multiply_1 (TFOpLambda  (None, 13, 13, 2)   0           ['conv2d_52[0][0]']              \n"," )                                                                                                \n","                                                                                                  \n"," conv2d_53 (Conv2D)             (None, 13, 13, 1)    1025        ['leaky_re_lu_44[0][0]']         \n","                                                                                                  \n"," conv2d_54 (Conv2D)             (None, 13, 13, 3)    3075        ['leaky_re_lu_44[0][0]']         \n","                                                                                                  \n"," conv2d_55 (Conv2D)             (None, 13, 13, 2)    2050        ['leaky_re_lu_44[0][0]']         \n","                                                                                                  \n"," tf.math.multiply_2 (TFOpLambda  (None, 13, 13, 2)   0           ['conv2d_56[0][0]']              \n"," )                                                                                                \n","                                                                                                  \n"," conv2d_57 (Conv2D)             (None, 13, 13, 1)    1025        ['leaky_re_lu_44[0][0]']         \n","                                                                                                  \n"," conv2d_58 (Conv2D)             (None, 13, 13, 3)    3075        ['leaky_re_lu_44[0][0]']         \n","                                                                                                  \n"," conv2d_59 (Conv2D)             (None, 13, 13, 2)    2050        ['leaky_re_lu_44[0][0]']         \n","                                                                                                  \n"," tf.math.multiply_3 (TFOpLambda  (None, 13, 13, 2)   0           ['conv2d_60[0][0]']              \n"," )                                                                                                \n","                                                                                                  \n"," conv2d_61 (Conv2D)             (None, 13, 13, 1)    1025        ['leaky_re_lu_44[0][0]']         \n","                                                                                                  \n"," conv2d_62 (Conv2D)             (None, 13, 13, 3)    3075        ['leaky_re_lu_44[0][0]']         \n","                                                                                                  \n"," conv2d_63 (Conv2D)             (None, 13, 13, 2)    2050        ['leaky_re_lu_44[0][0]']         \n","                                                                                                  \n"," tf.math.multiply_4 (TFOpLambda  (None, 13, 13, 2)   0           ['conv2d_64[0][0]']              \n"," )                                                                                                \n","                                                                                                  \n"," conv2d_65 (Conv2D)             (None, 13, 13, 1)    1025        ['leaky_re_lu_44[0][0]']         \n","                                                                                                  \n"," conv2d_66 (Conv2D)             (None, 13, 13, 3)    3075        ['leaky_re_lu_44[0][0]']         \n","                                                                                                  \n"," concatenate_2 (Concatenate)    (None, 13, 13, 40)   0           ['conv2d_47[0][0]',              \n","                                                                  'tf.math.multiply[0][0]',       \n","                                                                  'conv2d_49[0][0]',              \n","                                                                  'conv2d_50[0][0]',              \n","                                          
…
2  0           ['add_1[0][0]',                  \n","                                8)                                'leaky_re_lu_53[0][0]']         \n","                                                                                                  \n"," zero_padding2d_2 (ZeroPadding2  (None, 105, 105, 12  0          ['add_2[0][0]']                  \n"," D)                             8)                                                                \n","                                                                                                  \n"," conv2d_76 (Conv2D)             (None, 52, 52, 256)  294912      ['zero_padding2d_2[0][0]']       \n","                                                                                                  \n"," batch_normalization_54 (BatchN  (None, 52, 52, 256)  1024       ['conv2d_76[0][0]']              \n"," ormalization)                                                                                    \n","                                                                                                  \n"," leaky_re_lu_54 (LeakyReLU)     (None, 52, 52, 256)  0           ['batch_normalization_54[0][0]'] \n","                                                                                                  \n"," conv2d_77 (Conv2D)             (None, 52, 52, 128)  32768       ['leaky_re_lu_54[0][0]']         \n","                                                                                                  \n"," batch_normalization_55 (BatchN  (None, 52, 52, 128)  512        ['conv2d_77[0][0]']              \n"," ormalization)                                                                                    \n","                                                                                                  \n"," leaky_re_lu_55 (LeakyReLU)     (None, 52, 52, 128)  0           ['batch_normalization_55[0][0]'] \n","                                                                                                  \n"," conv2d_78 (Conv2D)             (None, 52, 52, 256)  294912      ['leaky_re_lu_55[0][0]']         \n","                                                                                                  \n"," batch_normalization_56 (BatchN  (None, 52, 52, 256)  1024       ['conv2d_78[0][0]']              \n"," ormalization)                                                                                    \n","                                                                                                  \n"," leaky_re_lu_56 (LeakyReLU)     (None, 52, 52, 256)  0           ['batch_normalization_56[0][0]'] \n","                                                                                                  \n"," add_3 (Add)                    (None, 52, 52, 256)  0           ['leaky_re_lu_54[0][0]',         \n","                                                                  'leaky_re_lu_56[0][0]']         \n","                                                                                                  \n"," conv2d_79 (Conv2D)             (None, 52, 52, 128)  32768       ['add_3[0][0]']                  \n","                                                                                                  \n"," batch_normalization_57 (BatchN  (None, 52, 52, 128)  512        ['conv2d_79[0][0]']              \n"," ormalization)                                                                                    \n","                                                                                                  \n"," leaky_re_lu_57 (LeakyReLU)     (None, 52, 52, 128)  0           ['batch_normalization_57[0][0]'] \n","                                                                                                  \n"," conv2d_80 (Conv2D)             (None, 52, 52, 256)  294912      ['leaky_re_lu_57[0][0]']         \n","                                                                                                  \n"," batch_normalization_58 (BatchN  (None, 52, 52, 256)  1024       ['conv2d_80[0][0]']              \n"," ormalization)                                                                                    \n","                                                                                                  \n"," leaky_re_lu_58 (LeakyReLU)     (None, 52, 52, 256)  0           ['batch_normalization_58[0][0]'] \n","                                                                                                  \n"," add_4 (Add)                    (None, 52, 52, 256)  0           ['add_3[0][0]',                  \n","                                                                  'leaky_re_lu_58[0][0]']         \n","                                                                                                  \n"," conv2d_81 (Conv2D)             (None, 52, 52, 128)  32768       ['add_4[0][0]']                  \n","                                                                                                  \n"," batch_normalization_59 (BatchN  (None, 52, 52, 128)  512        ['conv2d_81[0][0]']              \n"," ormalization)                                                                                    \n","                                                                                                  \n"," leaky_re_lu_59 (LeakyReLU)     (None, 52, 52, 128)  0           ['batch_normalization_59[0][0]'] \n","                                                                                                  \n"," conv2d_82 (Conv2D)             (None, 52, 52, 256)  294912      ['leaky_re_lu_59[0][0]']         \n","                                                                                                  \n"," batch_normalization_60 (BatchN  (None, 52, 52, 256)  1024       ['conv2d_82[0][0]']              \n"," ormalization)                                                                                    \n","                                                                                                  \n"," leaky_re_lu_60 (LeakyReLU)     (None, 52, 52, 256)  0           ['batch_normalization_60[0][0]'] \n","                                                                                                  \n"," add_5 (Add)                    (None, 52, 52, 256)  0           ['add_4[0][0]',                  \n","                                                                  'leaky_re_lu_60[0][0]']         \n","                                                                                                  \n"," conv2d_83 (Conv2D)             (None, 52, 52, 128)  32768       ['add_5[0][0]']                  \n","                                                                                                  \n"," batch_normalization_61 (BatchN  (None, 52, 52, 128)  512        ['conv2d_83[0][0]']              \n"," ormalization)                                                                                    \n","                                                                                                  \n"," leaky_re_lu_61 (LeakyReLU)     (None, 52, 52, 128)  0           ['batch_normalization_61[0][0]'] \n","                                                                                                  \n"," conv2d_84 (Conv2D)             (None, 52, 52, 256)  294912      ['leaky_re_lu_61[0][0]']         \n","                                                                                                  \n"," batch_normalization_62 (BatchN  (None, 52, 52, 256)  1024       ['conv2d_84[0][0]']              \n"," ormalization)                                                                                    \n","                                                                                                  \n"," leaky_re_lu_62 (LeakyReLU)     (None, 52, 52, 256)  0           ['batch_normalization_62[0][0]'] \n","                                                                                                  \n"," add_6 (Add)                    (None, 52, 52, 256)  0           ['add_5[0][0]',                  \n","                                                                  'leaky_re_lu_62[0][0]']         \n","                                                                                                  \n"," conv2d_85 (Conv2D)             (None, 52, 52, 128)  32768       ['add_6[0][0]']                  \n","                                                                                                  \n"," batch_normalization_63 (BatchN  (None, 52, 52, 128)  512        ['conv2d_85[0][0]']              \n"," ormalization)                                                                                    \n","                                                                                                  \n"," leaky_re_lu_63 (LeakyReLU)     (None, 52, 52, 128)  0           ['batch_normalization_63[0][0]'] \n","                                                                                                  \n"," conv2d_86 (Conv2D)             (None, 52, 52, 256)  294912      ['leaky_re_lu_63[0][0]']         \n","                                                                                                  \n"," batch_normalization_64 (BatchN  (None, 52, 52, 256)  1024       ['conv2d_86[0][0]']              \n"," ormalization)                                                                                    \n","                                                                                                  \n"," leaky_re_lu_64 (LeakyReLU)     (None, 52, 52, 256)  0           ['batch_normalization_64[0][0]'] \n","                                                                                                  \n"," add_7 (Add)                    (None, 52, 52, 256)  0           ['add_6[0][0]',                  \n","                                                                  'leaky_re_lu_64[0][0]']         \n","                                                                                                  \n"," conv2d_87 (Conv2D)             (None, 52, 52, 128)  32768       ['add_7[0][0]']                  \n","                                                                                                  \n"," batch_normalization_65 (BatchN  (None, 52, 52, 128)  512        ['conv2d_87[0][0]']              \n"," ormalization)                                                                                    \n","                                                                                                  \n"," leaky_re_lu_65 (LeakyReLU)     (None, 52, 52, 128)  0           ['batch_normalization_65[0][0]'] \n","                                                                                                  \n"," conv2d_88 (Conv2D)             (None, 52, 52, 256)  294912      ['leaky_re_lu_65[0][0]']         \n","                                                                                                  \n"," batch_normalization_66 (BatchN  (None, 52, 52, 256)  1024       ['conv2d_88[0][0]']              \n"," ormalization)                                                                                    \n","                                                                                                  \n"," leaky_re_lu_66 (LeakyReLU)     (None, 52, 52, 256)  0           ['batch_normalization_66[0][0]'] \n","                                                                                                  \n"," add_8 (Add)                    (None, 52, 52, 256)  0           ['add_7[0][0]',                  \n","                                                                  'leaky_re_lu_66[0][0]']         \n","                                                                                                  \n"," conv2d_89 (Conv2D)             (None, 52, 52, 128)  32768       ['add_8[0][0]']                  \n","                                                                                                  \n"," batch_normalization_67 (BatchN  (None, 52, 52, 128)  512        ['conv2d_89[0][0]']              \n"," ormalization)                                                                                    \n","                                                                                                  \n"," leaky_re_lu_67 (LeakyReLU)     (None, 52, 52, 128)  0           ['batch_normalization_67[0][0]'] \n","                                                                                                  \n"," conv2d_90 (Conv2D)             (None, 52, 52, 256)  294912      ['leaky_re_lu_67[0][0]']         \n","                                                                                                  \n"," batch_normalization_68 (BatchN  (None, 52, 52, 256)  1024       ['conv2d_90[0][0]']              \n"," ormalization)                                                                                    \n","                                                                                                  \n"," leaky_re_lu_68 (LeakyReLU)     (None, 52, 52, 256)  0           ['batch_normalization_68[0][0]'] \n","                                                                                                  \n"," add_9 (Add)                    (None, 52, 52, 256)  0           ['add_8[0][0]',                  \n","                                                                  'leaky_re_lu_68[0][0]']         \n","                                                                                                  \n"," conv2d_91 (Conv2D)             (None, 52, 52, 128)  32768       ['add_9[0][0]']                  \n","                                                                                                  \n"," batch_normalization_69 (BatchN  (None, 52, 52, 128)  512        ['conv2d_91[0][0]']              \n"," ormalization)                                                                                    \n","                                                                                                  \n"," leaky_re_lu_69 (LeakyReLU)     (None, 52, 52, 128)  0           ['batch_normalization_69[0][0]'] \n","                                                                                                  \n"," conv2d_92 (Conv2D)             (None, 52, 52, 256)  294912      ['leaky_re_lu_69[0][0]']         \n","                                                                                                  \n"," batch_normalization_70 (BatchN  (None, 52, 52, 256)  1024       ['conv2d_92[0][0]']              \n"," ormalization)                                                                                    \n","                                                                                                  \n"," leaky_re_lu_70 (LeakyReLU)     (None, 52, 52, 256)  0           ['batch_normalization_70[0][0]'] \n","                                                                                                  \n"," add_10 (Add)                   (None, 52, 52, 256)  0           ['add_9[0][0]',                  \n","                                                                  'leaky_re_lu_70[0][0]']         \n","                                                                                                  \n"," zero_padding2d_3 (ZeroPadding2  (None, 53, 53, 256)  0          ['add_10[0][0]']                 \n"," D)                                                                                               \n","                                                                                                  \n"," conv2d_93 (Conv2D)             (None, 26, 26, 512)  1179648     ['zero_padding2d_3[0][0]']       \n","                                                                                                  \n"," batch_normalization_71 (BatchN  (None, 26, 26, 512)  2048       ['conv2d_93[0][0]']              \n"," ormalization)                                                                                    \n","                                                                                                  \n"," leaky_re_lu_71 (LeakyReLU)     (None, 26, 26, 512)  0           ['batch_normalization_71[0][0]'] \n","                                                                                                  \n"," conv2d_94 (Conv2D)             (None, 26, 26, 256)  131072      ['leaky_re_lu_71[0][0]']         \n","                                                                                                  \n"," batch_normalization_72 (BatchN  (None, 26, 26, 256)  1024       ['conv2d_94[0][0]']              \n"," ormalization)                                                                                    \n","                                                                                                  \n"," leaky_re_lu_72 (LeakyReLU)     (None, 26, 26, 256)  0           ['batch_normalization_72[0][0]'] \n","                                                                                                  \n"," conv2d_95 (Conv2D)             (None, 26, 26, 512)  1179648     ['leaky_re_lu_72[0][0]']         \n","                                                                                                  \n"," batch_normalization_73 (BatchN  (None, 26, 26, 512)  2048       ['conv2d_95[0][0]']              \n"," ormalization)                                                                                    \n","                                                                                                  \n"," leaky_re_lu_73 (LeakyReLU)     (None, 26, 26, 512)  0           ['batch_normalization_73[0][0]'] \n","                                                                                                  \n"," add_11 (Add)                   (None, 26, 26, 512)  0           ['leaky_re_lu_71[0][0]',         \n","                                                                  'leaky_re_lu_73[0][0]']         \n","                                                                                                  \n"," conv2d_96 (Conv2D)             (None, 26, 26, 256)  131072      ['add_11[0][0]']                 \n","                                                                                                  \n"," batch_normalization_74 (BatchN  (None, 26, 26, 256)  1024       ['conv2d_96[0][0]']              \n"," ormalization)                                                                                    \n","                                                                                                  \n"," leaky_re_lu_74 (LeakyReLU)     (None, 26, 26, 256)  0           ['batch_normalization_74[0][0]'] \n","                                                                                                  \n"," conv2d_97 (Conv2D)             (None, 26, 26, 512)  1179648     ['leaky_re_lu_74[0][0]']         \n","                                                                                                  \n"," batch_normalization_75 (BatchN  (None, 26, 26, 512)  2048       ['conv2d_97[0][0]']              \n"," ormalization)                                                                                    \n","                                                                                                  \n"," leaky_re_lu_75 (LeakyReLU)     (None, 26, 26, 512)  0           ['batch_normalization_75[0][0]'] \n","                                                                                                  \n"," add_12 (Add)                   (None, 26, 26, 512)  0           ['add_11[0][0]',                 \n","                                                                  'leaky_re_lu_75[0][0]']         \n","                                                                                                  \n"," conv2d_98 (Conv2D)             (None, 26, 26, 256)  131072      ['add_12[0][0]']                 \n","                                                                                                  \n"," batch_normalization_76 (BatchN  (None, 26, 26, 256)  1024       ['conv2d_98[0][0]']              \n"," ormalization)                                                                                    \n","                                                                                                  \n"," leaky_re_lu_76 (LeakyReLU)     (None, 26, 26, 256)  0           ['batch_normalization_76[0][0]'] \n","                                                                                                  \n"," conv2d_99 (Conv2D)             (None, 26, 26, 512)  1179648     ['leaky_re_lu_76[0][0]']         \n","                                                                                                  \n"," batch_normalization_77 (BatchN  (None, 26, 26, 512)  2048       ['conv2d_99[0][0]']              \n"," ormalization)                                                                                    \n","                                                                                                  \n"," leaky_re_lu_77 (LeakyReLU)     (None, 26, 26, 512)  0           ['batch_normalization_77[0][0]'] \n","                                                                                                  \n"," add_13 (Add)                   (None, 26, 26, 512)  0           ['add_12[0][0]',                 \n","                                                                  'leaky_re_lu_77[0][0]']         \n","                                                                                                  \n"," conv2d_100 (Conv2D)            (None, 26, 26, 256)  131072      ['add_13[0][0]']                 \n","                                                                                                  \n"," batch_normalization_78 (BatchN  (None, 26, 26, 256)  1024       ['conv2d_100[0][0]']             \n"," ormalization)                                                                                    \n","                                                                                                  \n"," leaky_re_lu_78 (LeakyReLU)     (None, 26, 26, 256)  0           ['batch_normalization_78[0][0]'] \n","                                                                                                  \n"," conv2d_101 (Conv2D)            (None, 26, 26, 512)  1179648     ['leaky_re_lu_78[0][0]']         \n","                                                                                                  \n"," batch_normalization_79 (BatchN  (None, 26, 26, 512)  2048       ['conv2d_101[0][0]']             \n"," ormalization)                                                                                    \n","                                                                                                  \n"," leaky_re_lu_79 (LeakyReLU)     (None, 26, 26, 512)  0           ['batch_normalization_79[0][0]'] \n","                                                                                                  \n"," add_14 (Add)                   (None, 26, 26, 512)  0           ['add_13[0][0]',                 \n","                                                                  'leaky_re_lu_79[0][0]']         \n","                                                                                                  \n"," conv2d_102 (Conv2D)            (None, 26, 26, 256)  131072      ['add_14[0][0]']                 \n","                                                                                                  \n"," batch_normalization_80 (BatchN  (None, 26, 26, 256)  1024       ['conv2d_102[0][0]']             \n"," ormalization)                                                                                    \n","                                                                                                  \n"," leaky_re_lu_80 (LeakyReLU)     (None, 26, 26, 256)  0           ['batch_normalization_80[0][0]'] \n","                                                                                                  \n"," conv2d_103 (Conv2D)            (None, 26, 26, 512)  1179648     ['leaky_re_lu_80[0][0]']         \n","                                                                                                  \n"," batch_normalization_81 (BatchN  (None, 26, 26, 512)  2048       ['conv2d_103[0][0]']             \n"," ormalization)                                                                                    \n","                                                                                                  \n"," leaky_re_lu_81 (LeakyReLU)     (None, 26, 26, 512)  0           ['batch_normalization_81[0][0]'] \n","                                                                                                  \n"," add_15 (Add)                   (None, 26, 26, 512)  0           ['add_14[0][0]',                 \n","                                                                  'leaky_re_lu_81[0][0]']         \n","                                                                                                  \n"," conv2d_104 (Conv2D)            (None, 26, 26, 256)  131072      ['add_15[0][0]']                 \n","                                                                                                  \n"," batch_normalization_82 (BatchN  (None, 26, 26, 256)  1024       ['conv2d_104[0][0]']             \n"," ormalization)                                                                                    \n","                                                                                                  \n"," leaky_re_lu_82 (LeakyReLU)     (None, 26, 26, 256)  0           ['batch_normalization_82[0][0]'] \n","                                                                                                  \n"," conv2d_105 (Conv2D)            (None, 26, 26, 512)  1179648     ['leaky_re_lu_82[0][0]']         \n","                                                                                                  \n"," batch_normalization_83 (BatchN  (None, 26, 26, 512)  2048       ['conv2d_105[0][0]']             \n"," ormalization)                                                                                    \n","                                                                                                  \n"," leaky_re_lu_83 (LeakyReLU)     (None, 26, 26, 512)  0           ['batch_normalization_83[0][0]'] \n","                                                                                                  \n"," add_16 (Add)                   (None, 26, 26, 512)  0           ['add_15[0][0]',                 \n","                                                                  'leaky_re_lu_83[0][0]']         \n","                                                                                                  \n"," conv2d_106 (Conv2D)            (None, 26, 26, 256)  131072      ['add_16[0][0]']                 \n","                                                                                                  \n"," batch_normalization_84 (BatchN  (None, 26, 26, 256)  1024       ['conv2d_106[0][0]']             \n"," ormalization)                                                                                    \n","                                                                                                  \n"," leaky_re_lu_84 (LeakyReLU)     (None, 26, 26, 256)  0           ['batch_normalization_84[0][0]'] \n","                                                                                                  \n"," conv2d_107 (Conv2D)            (None, 26, 26, 512)  1179648     ['leaky_re_lu_84[0][0]']         \n","                                                                                                  \n"," batch_normalization_85 (BatchN  (None, 26, 26, 512)  2048       ['conv2d_107[0][0]']             \n"," ormalization)                                                                                    \n","                                                                                                  \n"," leaky_re_lu_85 (LeakyReLU)     (None, 26, 26, 512)  0           ['batch_normalization_85[0][0]'] \n","                                                                                                  \n"," add_17 (Add)                   (None, 26, 26, 512)  0           ['add_16[0][0]',                 \n","                                                                  'leaky_re_lu_85[0][0]']         \n","                                                                                                  \n"," conv2d_108 (Conv2D)            (None, 26, 26, 256)  131072      ['add_17[0][0]']                 \n","                                                                                                  \n"," batch_normalization_86 (BatchN  (None, 26, 26, 256)  1024       ['conv2d_108[0][0]']             \n"," ormalization)                                                                                    \n","                                                                                                  \n"," leaky_re_lu_86 (LeakyReLU)     (None, 26, 26, 256)  0           ['batch_normalization_86[0][0]'] \n","                                                                                                  \n"," conv2d_109 (Conv2D)            (None, 26, 26, 512)  1179648     ['leaky_re_lu_86[0][0]']         \n","                                                                                                  \n"," batch_normalization_87 (BatchN  (None, 26, 26, 512)  2048       ['conv2d_109[0][0]']             \n"," ormalization)                                                                                    \n","                                                                                                  \n"," leaky_re_lu_87 (LeakyReLU)     (None, 26, 26, 512)  0           ['batch_normalization_87[0][0]'] \n","                                                                                                  \n"," add_18 (Add)                   (None, 26, 26, 512)  0           ['add_17[0][0]',                 \n","                                                                  'leaky_re_lu_87[0][0]']         \n","                                                                                                  \n"," zero_padding2d_4 (ZeroPadding2  (None, 27, 27, 512)  0          ['add_18[0][0]']                 \n"," D)                                                                                               \n","                                                                                                  \n"," conv2d_110 (Conv2D)            (None, 13, 13, 1024  4718592     ['zero_padding2d_4[0][0]']       \n","                                )          
…
24  4096       ['conv2d_122[0][0]']             \n"," Normalization)                 )                                                                 \n","                                                                                                  \n"," leaky_re_lu_100 (LeakyReLU)    (None, 13, 13, 1024  0           ['batch_normalization_100[0][0]']\n","                                )                                                                 \n","                                                                                                  \n"," conv2d_123 (Conv2D)            (None, 13, 13, 512)  524288      ['leaky_re_lu_100[0][0]']        \n","                                                                                                  \n"," batch_normalization_101 (Batch  (None, 13, 13, 512)  2048       ['conv2d_123[0][0]']             \n"," Normalization)                                                                                   \n","                                                                                                  \n"," leaky_re_lu_101 (LeakyReLU)    (None, 13, 13, 512)  0           ['batch_normalization_101[0][0]']\n","                                                                                                  \n"," conv2d_125 (Conv2D)            (None, 13, 13, 256)  131072      ['leaky_re_lu_101[0][0]']        \n","                                                                                                  \n"," batch_normalization_103 (Batch  (None, 13, 13, 256)  1024       ['conv2d_125[0][0]']             \n"," Normalization)                                                                                   \n","                                                                                                  \n"," leaky_re_lu_103 (LeakyReLU)    (None, 13, 13, 256)  0           ['batch_normalization_103[0][0]']\n","                                                                                                  \n"," up_sampling2d (UpSampling2D)   (None, 26, 26, 256)  0           ['leaky_re_lu_103[0][0]']        \n","                                                                                                  \n"," concatenate_3 (Concatenate)    (None, 26, 26, 768)  0           ['up_sampling2d[0][0]',          \n","                                                                  'add_18[0][0]']                 \n","                                                                                                  \n"," conv2d_126 (Conv2D)            (None, 26, 26, 256)  196608      ['concatenate_3[0][0]']          \n","                                                                                                  \n"," batch_normalization_104 (Batch  (None, 26, 26, 256)  1024       ['conv2d_126[0][0]']             \n"," Normalization)                                                                                   \n","                                                                                                  \n"," leaky_re_lu_104 (LeakyReLU)    (None, 26, 26, 256)  0           ['batch_normalization_104[0][0]']\n","                                                                                                  \n"," conv2d_127 (Conv2D)            (None, 26, 26, 512)  1179648     ['leaky_re_lu_104[0][0]']        \n","                                                                                                  \n"," batch_normalization_105 (Batch  (None, 26, 26, 512)  2048       ['conv2d_127[0][0]']             \n"," Normalization)                                                                                   \n","                                                                                                  \n"," leaky_re_lu_105 (LeakyReLU)    (None, 26, 26, 512)  0           ['batch_normalization_105[0][0]']\n","                                                                                                  \n"," conv2d_128 (Conv2D)            (None, 26, 26, 256)  131072      ['leaky_re_lu_105[0][0]']        \n","                                                                                                  \n"," batch_normalization_106 (Batch  (None, 26, 26, 256)  1024       ['conv2d_128[0][0]']             \n"," Normalization)                                                                                   \n","                                                                                                  \n"," leaky_re_lu_106 (LeakyReLU)    (None, 26, 26, 256)  0           ['batch_normalization_106[0][0]']\n","                                                                                                  \n"," conv2d_129 (Conv2D)            (None, 26, 26, 512)  1179648     ['leaky_re_lu_106[0][0]']        \n","                                                                                                  \n"," batch_normalization_107 (Batch  (None, 26, 26, 512)  2048       ['conv2d_129[0][0]']             \n"," Normalization)                                                                                   \n","                                                                                                  \n"," leaky_re_lu_107 (LeakyReLU)    (None, 26, 26, 512)  0           ['batch_normalization_107[0][0]']\n","                                                                                                  \n"," conv2d_130 (Conv2D)            (None, 26, 26, 256)  131072      ['leaky_re_lu_107[0][0]']        \n","                                                                                                  \n"," batch_normalization_108 (Batch  (None, 26, 26, 256)  1024       ['conv2d_130[0][0]']             \n"," Normalization)                                                                                   \n","                                                                                                  \n"," leaky_re_lu_108 (LeakyReLU)    (None, 26, 26, 256)  0           ['batch_normalization_108[0][0]']\n","                                                                                                  \n"," conv2d_132 (Conv2D)            (None, 26, 26, 128)  32768       ['leaky_re_lu_108[0][0]']        \n","                                                                                                  \n"," batch_normalization_110 (Batch  (None, 26, 26, 128)  512        ['conv2d_132[0][0]']             \n"," Normalization)                                                                                   \n","                                                                                                  \n"," leaky_re_lu_110 (LeakyReLU)    (None, 26, 26, 128)  0           ['batch_normalization_110[0][0]']\n","                                                                                                  \n"," up_sampling2d_1 (UpSampling2D)  (None, 52, 52, 128)  0          ['leaky_re_lu_110[0][0]']        \n","                                                                                                  \n"," concatenate_4 (Concatenate)    (None, 52, 52, 384)  0           ['up_sampling2d_1[0][0]',        \n","                                                                  'add_10[0][0]']                 \n","                                                                                                  \n"," conv2d_133 (Conv2D)            (None, 52, 52, 128)  49152       ['concatenate_4[0][0]']          \n","                                                                                                  \n"," batch_normalization_111 (Batch  (None, 52, 52, 128)  512        ['conv2d_133[0][0]']             \n"," Normalization)                                                                                   \n","                                                                                                  \n"," leaky_re_lu_111 (LeakyReLU)    (None, 52, 52, 128)  0           ['batch_normalization_111[0][0]']\n","                                                                                                  \n"," conv2d_134 (Conv2D)            (None, 52, 52, 256)  294912      ['leaky_re_lu_111[0][0]']        \n","                                                                                                  \n"," batch_normalization_112 (Batch  (None, 52, 52, 256)  1024       ['conv2d_134[0][0]']             \n"," Normalization)                                                                                   \n","                                                                                                  \n"," leaky_re_lu_112 (LeakyReLU)    (None, 52, 52, 256)  0           ['batch_normalization_112[0][0]']\n","                                                                                                  \n"," conv2d_135 (Conv2D)            (None, 52, 52, 128)  32768       ['leaky_re_lu_112[0][0]']        \n","                                                                                                  \n"," batch_normalization_113 (Batch  (None, 52, 52, 128)  512        ['conv2d_135[0][0]']             \n"," Normalization)                                                                                   \n","                                                                                                  \n"," leaky_re_lu_113 (LeakyReLU)    (None, 52, 52, 128)  0           ['batch_normalization_113[0][0]']\n","                                                                                                  \n"," conv2d_136 (Conv2D)            (None, 52, 52, 256)  294912      ['leaky_re_lu_113[0][0]']        \n","                                                                                                  \n"," batch_normalization_114 (Batch  (None, 52, 52, 256)  1024       ['conv2d_136[0][0]']             \n"," Normalization)                                                                                   \n","                                                                                                  \n"," leaky_re_lu_114 (LeakyReLU)    (None, 52, 52, 256)  0           ['batch_normalization_114[0][0]']\n","                                                                                                  \n"," conv2d_137 (Conv2D)            (None, 52, 52, 128)  32768       ['leaky_re_lu_114[0][0]']        \n","                                                                                                  \n"," batch_normalization_115 (Batch  (None, 52, 52, 128)  512        ['conv2d_137[0][0]']             \n"," Normalization)                                                                                   \n","                                                                                                  \n"," leaky_re_lu_115 (LeakyReLU)    (None, 52, 52, 128)  0           ['batch_normalization_115[0][0]']\n","                                                                                                  \n"," conv2d_124 (Conv2D)            (None, 13, 13, 1024  4718592     ['leaky_re_lu_101[0][0]']        \n","                                )                                                                 \n","                                                                                                  \n"," conv2d_131 (Conv2D)            (None, 26, 26, 512)  1179648     ['leaky_re_lu_108[0][0]']        \n","                                                                                                  \n"," conv2d_138 (Conv2D)            (None, 52, 52, 256)  294912      ['leaky_re_lu_115[0][0]']        \n","                                                                                                  \n"," batch_normalization_102 (Batch  (None, 13, 13, 1024  4096       ['conv2d_124[0][0]']             \n"," Normalization)                 )                                                                 \n","                                                                                                  \n"," batch_normalization_109 (Batch  (None, 26, 26, 512)  2048       ['conv2d_131[0][0]']             \n"," Normalization)                                                                                   \n","                                                                                                  \n"," batch_normalization_116 (Batch  (None, 52, 52, 256)  1024       ['conv2d_138[0][0]']             \n"," Normalization)                                                                                   \n","                                                                                                  \n"," leaky_re_lu_102 (LeakyReLU)    (None, 13, 13, 1024  0           ['batch_normalization_102[0][0]']\n","                                )                                                                 \n","                                                                                                  \n"," leaky_re_lu_109 (LeakyReLU)    (None, 26, 26, 512)  0           ['batch_normalization_109[0][0]']\n","                                                                                                  \n"," leaky_re_lu_116 (LeakyReLU)    (None, 52, 52, 256)  0           ['batch_normalization_116[0][0]']\n","                                                                                                  \n"," conv2d_140 (Conv2D)            (None, 13, 13, 2)    2050        ['leaky_re_lu_102[0][0]']        \n","                                                                                                  \n"," conv2d_144 (Conv2D)            (None, 13, 13, 2)    2050        ['leaky_re_lu_102[0][0]']        \n","                                                                                                  \n"," conv2d_148 (Conv2D)            (None, 13, 13, 2)    2050        ['leaky_re_lu_102[0][0]']        \n","                                                                                                  \n"," conv2d_152 (Conv2D)            (None, 26, 26, 2)    1026        ['leaky_re_lu_109[0][0]']        \n","                                                                                                  \n"," conv2d_156 (Conv2D)            (None, 26, 26, 2)    1026        ['leaky_re_lu_109[0][0]']        \n","                                                                                                  \n"," conv2d_160 (Conv2D)            (None, 26, 26, 2)    1026        ['leaky_re_lu_109[0][0]']        \n","                                                                                                  \n"," conv2d_164 (Conv2D)            (None, 52, 52, 2)    514         ['leaky_re_lu_116[0][0]']        \n","                                                                                                  \n"," conv2d_168 (Conv2D)            (None, 52, 52, 2)    514         ['leaky_re_lu_116[0][0]']        \n","                                                                                                  \n"," conv2d_172 (Conv2D)            (None, 52, 52, 2)    514         ['leaky_re_lu_116[0][0]']        \n","                                                                                                  \n"," conv2d_139 (Conv2D)            (None, 13, 13, 2)    2050        ['leaky_re_lu_102[0][0]']        \n","                                                                                                  \n"," tf.math.multiply_5 (TFOpLambda  (None, 13, 13, 2)   0           ['conv2d_140[0][0]']             \n"," )                                                                                                \n","                                                                                                  \n"," conv2d_141 (Conv2D)            (None, 13, 13, 1)    1025        ['leaky_re_lu_102[0][0]']        \n","                                                                                                  \n"," conv2d_142 (Conv2D)            (None, 13, 13, 3)    3075        ['leaky_re_lu_102[0][0]']        \n","                                                                                                  \n"," conv2d_143 (Conv2D)            (None, 13, 13, 2)    2050        ['leaky_re_lu_102[0][0]']        \n","                                                                                                  \n"," tf.math.multiply_6 (TFOpLambda  (None, 13, 13, 2)   0           ['conv2d_144[0][0]']             \n"," )                                                                                                \n","                                                                                                  \n"," conv2d_145 (Conv2D)            (None, 13, 13, 1)    1025        ['leaky_re_lu_102[0][0]']        \n","                                                                                                  \n"," conv2d_146 (Conv2D)            (None, 13, 13, 3)    3075        ['leaky_re_lu_102[0][0]']        \n","                                                                                                  \n"," conv2d_147 (Conv2D)            (None, 13, 13, 2)    2050        ['leaky_re_lu_102[0][0]']        \n","                                                                                                  \n"," tf.math.multiply_7 (TFOpLambda  (None, 13, 13, 2)   0           ['conv2d_148[0][0]']             \n"," )                                                                                                \n","                                                                                                  \n"," conv2d_149 (Conv2D)            (None, 13, 13, 1)    1025        ['leaky_re_lu_102[0][0]']        \n","                                                                                                  \n"," conv2d_150 (Conv2D)            (None, 13, 13, 3)    3075        ['leaky_re_lu_102[0][0]']        \n","                                                                                                  \n"," conv2d_151 (Conv2D)            (None, 26, 26, 2)    1026        ['leaky_re_lu_109[0][0]']        \n","                                                                                                  \n"," tf.math.multiply_8 (TFOpLambda  (None, 26, 26, 2)   0           ['conv2d_152[0][0]']             \n"," )                                                                                                \n","                                                                                                  \n"," conv2d_153 (Conv2D)            (None, 26, 26, 1)    513         ['leaky_re_lu_109[0][0]']        \n","                                                                                                  \n"," conv2d_154 (Conv2D)            (None, 26, 26, 3)    1539        ['leaky_re_lu_109[0][0]']        \n","                                                                                                  \n"," conv2d_155 (Conv2D)            (None, 26, 26, 2)    1026        ['leaky_re_lu_109[0][0]']        \n","                                                                                                  \n"," tf.math.multiply_9 (TFOpLambda  (None, 26, 26, 2)   0           ['conv2d_156[0][0]']             \n"," )                                                                                                \n","                                                                                                  \n"," conv2d_157 (Conv2D)            (None, 26, 26, 1)    513         ['leaky_re_lu_109[0][0]']        \n","                                                                                                  \n"," conv2d_158 (Conv2D)            (None, 26, 26, 3)    1539        ['leaky_re_lu_109[0][0]']        \n","                                                                                                  \n"," conv2d_159 (Conv2D)            (None, 26, 26, 2)    1026        ['leaky_re_lu_109[0][0]']        \n","                                                                                                  \n"," tf.math.multiply_10 (TFOpLambd  (None, 26, 26, 2)   0           ['conv2d_160[0][0]']             \n"," a)                                                                                               \n","                                                                                                  \n"," conv2d_161 (Conv2D)            (None, 26, 26, 1)    513         ['leaky_re_lu_109[0][0]']        \n","                                                                                                  \n"," conv2d_162 (Conv2D)            (None, 26, 26, 3)    1539        ['leaky_re_lu_109[0][0]']        \n","                                                                                                  \n"," conv2d_163 (Conv2D)            (None, 52, 52, 2)    514         ['leaky_re_lu_116[0][0]']        \n","                                                                                                  \n"," tf.math.multiply_11 (TFOpLambd  (None, 52, 52, 2)   0           ['conv2d_164[0][0]']             \n"," a)                                                                                               \n","                                                                                                  \n"," conv2d_165 (Conv2D)            (None, 52, 52, 1)    257         ['leaky_re_lu_116[0][0]']        \n","                                                                                                  \n"," conv2d_166 (Conv2D)            (None, 52, 52, 3)    771         ['leaky_re_lu_116[0][0]']        \n","                                                                                                  \n"," conv2d_167 (Conv2D)            (None, 52, 52, 2)    514         ['leaky_re_lu_116[0][0]']        \n","                                                                                                  \n"," tf.math.multiply_12 (TFOpLambd  (None, 52, 52, 2)   0           ['conv2d_168[0][0]']             \n"," a)                                                                                               \n","                                                                                                  \n"," conv2d_169 (Conv2D)            (None, 52, 52, 1)    257         ['leaky_re_lu_116[0][0]']        \n","                                                                                                  \n"," conv2d_170 (Conv2D)            (None, 52, 52, 3)    771         ['leaky_re_lu_116[0][0]']        \n","                                                                                                  \n"," conv2d_171 (Conv2D)            (None, 52, 52, 2)    514         ['leaky_re_lu_116[0][0]']        \n","                                                                                                  \n"," tf.math.multiply_13 (TFOpLambd  (None, 52, 52, 2)   0           ['conv2d_172[0][0]']             \n"," a)                                                                                               \n","                                                                                                  \n"," conv2d_173 (Conv2D)            (None, 52, 52, 1)    257         ['leaky_re_lu_116[0][0]']        \n","                                                                                                  \n"," conv2d_174 (Conv2D)            (None, 52, 52, 3)    771         ['leaky_re_lu_116[0][0]']        \n","                                                                                                  \n"," concatenate_5 (Concatenate)    (None, 13, 13, 24)   0           ['conv2d_139[0][0]',             \n","                                                                  'tf.math.multiply_5[0][0]',     \n","                                                                  'conv2d_141[0][0]',             \n","                                                                  'conv2d_142[0][0]',             \n","                                          
…
